…
, ), hinton_layers, 'sigmoid', loss='mse')\n","hinton_hist = hinton.fit_layerwise(x_train, x_test, epochs, batch_size, mean=0., std_dev=1.)\n","print(\"Hinton eval: {}\".format(hinton.evaluate(x_test, x_test, 256, noise=True, mean=0., std_dev=1.)))"],"execution_count":7,"outputs":[{"output_type":"stream","text":["Training Hinton DAE: [1000, 500, 250, 30]\n","_________________________________________________________________\n","Layer (type)                 Output Shape              Param #   \n","=================================================================\n","deep_ae_input (InputLayer)   (None, 784)               0         \n","_________________________________________________________________\n","encoding_layer_1000 (Dense)  (None, 1000)              785000    \n","_________________________________________________________________\n","encoding_layer_500 (Dense)   (None, 500)               500500    \n","_________________________________________________________________\n","encoding_layer_250 (Dense)   (None, 250)               125250    \n","_________________________________________________________________\n","encoding_layer_30 (Dense)    (None, 30)                7530      \n","_________________________________________________________________\n","decoding_layer_250 (Dense)   (None, 250)               7750      \n","_________________________________________________________________\n","decoding_layer_500 (Dense)   (None, 500)               125500    \n","_________________________________________________________________\n","decoding_layer_1000 (Dense)  (None, 1000)              501000    \n","_________________________________________________________________\n","output_layer (Dense)         (None, 784)               784784    \n","=================================================================\n","Total params: 2,837,314\n","Trainable params: 2,837,314\n","Non-trainable params: 0\n","_________________________________________________________________\n","None\n","===== Training layer <encoding_layer_1000> =====\n","_________________________________________________________________\n","Layer (type)                 Output Shape              Param #   \n","=================================================================\n","sh_ae_input (InputLayer)     (None, 784)               0         \n","_________________________________________________________________\n","encoding_layer (Dense)       (None, 1000)              785000    \n","_________________________________________________________________\n","decoding_layer (Dense)       (None, 784)               784784    \n","=================================================================\n","Total params: 1,569,784\n","Trainable params: 1,569,784\n","Non-trainable params: 0\n","_________________________________________________________________\n","None\n","===== Training layer <encoding_layer_500> =====\n","_________________________________________________________________\n","Layer (type)                 Output Shape              Param #   \n","=================================================================\n","sh_ae_input (InputLayer)     (None, 1000)              0         \n","_________________________________________________________________\n","encoding_layer (Dense)       (None, 500)               500500    \n","_________________________________________________________________\n","decoding_layer (Dense)       (None, 1000)              501000    \n","=================================================================\n","Total params: 1,001,500\n","Trainable params: 1,001,500\n","Non-trainable params: 0\n","_________________________________________________________________\n","None\n","===== Training layer <encoding_layer_250> =====\n","_________________________________________________________________\n","Layer (type)                 Output Shape              Param #   \n","=================================================================\n","sh_ae_input (InputLayer)     (None, 500)               0         \n","_________________________________________________________________\n","encoding_layer (Dense)       (None, 250)               125250    \n","_________________________________________________________________\n","decoding_layer (Dense)       (None, 500)               125500    \n","=================================================================\n","Total params: 250,750\n","Trainable params: 250,750\n","Non-trainable params: 0\n","_________________________________________________________________\n","None\n","===== Training layer <encoding_layer_30> =====\n","_________________________________________________________________\n","Layer (type)                 Output Shape              Param #   \n","=================================================================\n","sh_ae_input (InputLayer)     (None, 250)               0         \n","_________________________________________________________________\n","encoding_layer (Dense)       (None, 30)                7530      \n","_________________________________________________________________\n","decoding_layer (Dense)       (None, 250)               7750      \n","=================================================================\n","Total params: 15,280\n","Trainable params: 15,280\n","Non-trainable params: 0\n","_________________________________________________________________\n","None\n","10000/10000 [==============================] - 0s 25us/step\n","Hinton eval: [0.02181863192021847, 0.0135]\n"],"name":"stdout"}]},{"cell_type":"code","metadat
…
s_deep.append(eval)\n","    evals_deep.append(eval_)\n","    print(\"Model {} has evaluation score of: {}\".format(encoding_dim, eval))\n","    print(\"Model {} has evaluation score of: {}\".format(encoding_dim, eval_))\n","    deep_ae.append(ae)\n"],"execution_count":0,"outputs":[{"output_type":"stream","text":["Training Hinton DAE: [1000, 500, 250, 30]\n","_________________________________________________________________\n","Layer (type)                 Output Shape              Param #   \n","=================================================================\n","deep_ae_input (InputLayer)   (None, 784)               0         \n","_________________________________________________________________\n","encoding_layer_1000 (Dense)  (None, 1000)              785000    \n","_________________________________________________________________\n","encoding_layer_500 (Dense)   (None, 500)               500500    \n","_________________________________________________________________\n","encoding_layer_250 (Dense)   (None, 250)               125250    \n","_________________________________________________________________\n","encoding_layer_30 (Dense)    (None, 30)                7530      \n","_________________________________________________________________\n","decoding_layer_250 (Dense)   (None, 250)               7750      \n","_________________________________________________________________\n","decoding_layer_500 (Dense)   (None, 500)               125500    \n","_________________________________________________________________\n","decoding_layer_1000 (Dense)  (None, 1000)              501000    \n","_________________________________________________________________\n","output_layer (Dense)         (None, 784)               784784    \n","=================================================================\n","Total params: 2,837,314\n","Trainable params: 2,837,314\n","Non-trainable params: 0\n","_________________________________________________________________\n","None\n","===== Training layer <encoding_layer_1000> =====\n","_________________________________________________________________\n","Layer (type)                 Output Shape              Param #   \n","=================================================================\n","sh_ae_input (InputLayer)     (None, 784)               0         \n","_________________________________________________________________\n","encoding_layer (Dense)       (None, 1000)              785000    \n","_________________________________________________________________\n","decoding_layer (Dense)       (None, 784)               784784    \n","=================================================================\n","Total params: 1,569,784\n","Trainable params: 1,569,784\n","Non-trainable params: 0\n","_________________________________________________________________\n","None\n","===== Training layer <encoding_layer_500> =====\n","_________________________________________________________________\n","Layer (type)                 Output Shape              Param #   \n","=================================================================\n","sh_ae_input (InputLayer)     (None, 1000)              0         \n","_________________________________________________________________\n","encoding_layer (Dense)       (None, 500)               500500    \n","_________________________________________________________________\n","decoding_layer (Dense)       (None, 1000)              501000    \n","=================================================================\n","Total params: 1,001,500\n","Trainable params: 1,001,500\n","Non-trainable params: 0\n","_________________________________________________________________\n","None\n","===== Training layer <encoding_layer_250> =====\n","_________________________________________________________________\n","Layer (type)                 Output Shape              Param #   \n","=================================================================\n","sh_ae_input (InputLayer)     (None, 500)               0         \n","_________________________________________________________________\n","encoding_layer (Dense)       (None, 250)               125250    \n","_________________________________________________________________\n","decoding_layer (Dense)       (None, 500)               125500    \n","=================================================================\n","Total params: 250,750\n","Trainable params: 250,750\n","Non-trainable params: 0\n","_________________________________________________________________\n","None\n","===== Training layer <encoding_layer_30> =====\n","_________________________________________________________________\n","Layer (type)                 Output Shape              Param #   \n","=================================================================\n","sh_ae_input (InputLayer)     (None, 250)               0         \n","_________________________________________________________________\n","encoding_layer (Dense)       (None, 30)                7530      \n","_________________________________________________________________\n","decoding_layer (Dense)       (None, 250)               7750      \n","=================================================================\n","Total params: 15,280\n","Trainable params: 15,280\n","Non-trainable params: 0\n","_________________________________________________________________\n","None\n","10000/10000 [==============================] - 0s 31us/step\n","Hinton eval: [0.3376913088321686, 0.7667327863693237]\n","10000/10000 [==============================] - 0s 15us/step\n","Hinton eval: [0.22851151657104493, 0.7681001253128051]\n","Training Deep-DAE with shape [1200, 600, 300, 150]\n","_________________________________________________________________\n","Layer (type)                 Output Shape              Param #   \n","=================================================================\n","deep_ae_input (InputLayer)   (None, 784)               0         \n","_________________________________________________________________\n","encoding_layer_1200 (Dense)  (None, 1200)              942000    \n","_________________________________________________________________\n","encoding_layer_600 (Dense)   (None, 600)               720600    \n","_________________________________________________________________\n","encoding_layer_300 (Dense)   (None, 300)               180300    \n","_________________________________________________________________\n","encoding_layer_150 (Dense)   (None, 150)               45150     \n","_________________________________________________________________\n","decoding_layer_300 (Dense)   (None, 300)               45300     \n","_________________________________________________________________\n","decoding_layer_600 (Dense)   (None, 600)               180600    \n","_________________________________________________________________\n","decoding_layer_1200 (Dense)  (None, 1200)              721200    \n","_________________________________________________________________\n","output_layer (Dense)         (None, 784)               941584    \n","=================================================================\n","Total params: 3,776,734\n","Trainable params: 3,776,734\n","Non-trainable params: 0\n","_________________________________________________________________\n","None\n","===== Training layer <encoding_layer_1200> =====\n","_________________________________________________________________\n","Layer (type)                 Output Shape              Param #   \n","=================================================================\n","sh_ae_input (InputLayer)     (None, 784)               0         \n","_________________________________________________________________\n","encoding_layer (Dense)       (None, 1200)              942000    \n","_________________________________________________________________\n","decoding_layer (Dense)       (None, 784)               941584    \n","=================================================================\n","Total params: 1,883,584\n","Trainable params: 1,883,584\n","Non-trainable params: 0\n","_________________________________________________________________\n","None\n","===== Training layer <encoding_layer_600> =====\n","_________________________________________________________________\n","Layer (type)                 Output Shape              Param #   \n","=================================================================\n","sh_ae_input (InputLayer)     (None, 1200)              0         \n","_________________________________________________________________\n","encoding_layer (Dense)       (None, 600)               720600    \n","_________________________________________________________________\n","decoding_layer (Dense)       (None, 1200)              721200    \n","=================================================================\n","Total params: 1,441,800\n","Trainable params: 1,441,800\n","Non-trainable params: 0\n","_________________________________________________________________\n","None\n","===== Training layer <encoding_layer_300> =====\n","_________________________________________________________________\n","Layer (type)                 Output Shape              Param #   \n","=================================================================\n","sh_ae_input (InputLayer)     (None, 600)               0         \n","_________________________________________________________________\n","encoding_layer (Dense)       (None, 300)               180300    \n","_________________________________________________________________\n","decoding_layer (Dense)       (None, 600)               180600    \n","=================================================================\n","Total params: 360,900\n","Trainable params: 360,900\n","Non-trainable params: 0\n","_________________________________________________________________\n","None\n","===== Training layer <encoding_layer_150> =====\n","_________________________________________________________________\n","Layer (type)                 Output Shape              Param #   \n","=================================================================\n","sh_ae_input (InputLayer)     (None, 300)               0         \n","_________________________________________________________________\n","encoding_layer (Dense)       (None, 150)               45150     \n","_________________________________________________________________\n","decoding_layer (Dense)       (None, 300)               45300     \n","=================================================================\n","Total params: 90,450\n","Trainable params: 90,450\n","Non-trainable params: 0\n","_________________________________________________________________\n","None\n","10000/10000 [==============================] - 0s 37us/step\n","10000/10000 [==============================] - 0s 15us/step\n","Model 512 has evaluation score of: [0.3222659846544266, 0.7782533232688904]\n","Model 512 has evaluation score of: [0.1939895179271698, 0.7852350702285766]\n","Training Deep-DAE with shape [1000, 500, 250, 125]\n","_________________________________________________________________\n","Layer (type)                 Output Shape              Param #   \n","=================================================================\n","deep_ae_input (InputLayer)   (None, 784)               0         \n","_________________________________________________________________\n","encoding_layer_1000 (Dense)  (None, 1000)              785000    \n","_________________________________________________________________\n","encoding_layer_500 (Dense)   (None, 500)               500500    \n","_________________________________________________________________\n","encoding_layer_250 (Dense)   (None, 250)               125250    \n","_________________________________________________________________\n","encoding_layer_125 (Dense)   (None, 125)               31375     \n","_________________________________________________________________\n","decoding_layer_250 (Dense)   (None, 250)               31500     \n","_________________________________________________________________\n","decoding_layer_500 (Dense)   (None, 500)               125500    \n","_________________________________________________________________\n","decoding_layer_1000 (Dense)  (None, 1000)              501000    \n","_________________________________________________________________\n","output_layer (Dense)         (None, 784)               784784    \n","=================================================================\n","Total params: 2,884,909\n","Trainable params: 2,884,909\n","Non-trainable params: 0\n","_________________________________________________________________\n","None\n","===== Training layer <encoding_layer_1000> =====\n","_________________________________________________________________\n","Layer (type)                 Output Shape              Param #   \n","=================================================================\n","sh_ae_input (InputLayer)     (None, 784)               0         \n","_________________________________________________________________\n","encoding_layer (Dense)       (None, 1000)              785000    \n","_________________________________________________________________\n","decoding_layer (Dense)       (None, 784)               784784    \n","=================================================================\n","Total params: 1,569,784\n","Trainable params: 1,569,784\n","Non-trainable params: 0\n","_________________________________________________________________\n","None\n","===== Training layer <encoding_layer_500> =====\n","_________________________________________________________________\n","Layer (type)                 Output Shape              Param #   \n","=================================================================\n","sh_ae_input (InputLayer)     (None, 1000)              0         \n","_________________________________________________________________\n","encoding_layer (Dense)       (None, 500)               500500    \n","_________________________________________________________________\n","decoding_layer (Dense)       (None, 1000)              501000    \n","=================================================================\n","Total params: 1,001,500\n","Trainable params: 1,001,500\n","Non-trainable params: 0\n","_________________________________________________________________\n","None\n","===== Training layer <encoding_layer_250> =====\n","_________________________________________________________________\n","Layer (type)                 Output Shape              Param #   \n","=================================================================\n","sh_ae_input (InputLayer)     (None, 500)               0         \n","_________________________________________________________________\n","encoding_layer (Dense)       (None, 250)               125250    \n","_________________________________________________________________\n","decoding_layer (Dense)       (None, 500)               125500    \n","=================================================================\n","Total params: 250,750\n","Trainable params: 250,750\n","Non-trainable params: 0\n","_________________________________________________________________\n","None\n","===== Training layer <encoding_layer_125> =====\n","_________________________________________________________________\n","Layer (type)                 Output Shape              Param #   \n","=================================================================\n","sh_ae_input (InputLayer)     (None, 250)               0         \n","_________________________________________________________________\n","encoding_layer (Dense)       (None, 125)               31375     \n","_________________________________________________________________\n","decoding_layer (Dense)       (None, 250)               31500     \n","=================================================================\n","Total params: 62,875\n","Trainable params: 62,875\n","Non-trainable params: 0\n","_________________________________________________________________\n","None\n","10000/10000 [==============================] - 0s 46us/step\n","10000/10000 [==============================] - 0s 17us/step\n","Model 512 has evaluation score of: [0.2883397719860077, 0.7805806045532226]\n","Model 512 has evaluation score of: [0.18961415224075318, 0.7861587995529175]\n","Training Deep-DAE with shape [512, 256, 128, 64]\n","_________________________________________________________________\n","Layer (type)                 Output Shape              Param #   \n","=================================================================\n","deep_ae_input (InputLayer)   (None, 784)               0         \n","_________________________________________________________________\n","encoding_layer_512 (Dense)   (None, 512)               401920    \n","_________________________________________________________________\n","encoding_layer_256 (Dense)   (None, 256)               131328    \n","_________________________________________________________________\n","encoding_layer_128 (Dense)   (None, 128)               32896     \n","_________________________________________________________________\n","encoding_layer_64 (Dense)    (None, 64)                8256      \n","_________________________________________________________________\n","decoding_layer_128 (Dense)   (None, 128)               8320      \n","_________________________________________________________________\n","decoding_layer_256 (Dense)   (None, 256)               33024     \n","_________________________________________________________________\n","decoding_layer_512 (Dense)   (None, 512)               131584    \n","_________________________________________________________________\n","output_layer (Dense)         (None, 784)               402192    \n","=================================================================\n","Total params: 1,149,520\n","Trainable params: 1,149,520\n","Non-trainable params: 0\n","_________________________________________________________________\n","None\n","===== Training layer <encoding_layer_512> =====\n","_________________________________________________________________\n","Layer (type)                 Output Shape              Param #   \n","=================================================================\n","sh_ae_input (InputLayer)     (None, 784)               0         \n","_________________________________________________________________\n","encoding_layer (Dense)       (None, 512)               401920    \n","_________________________________________________________________\n","decoding_layer (Dense)       (None, 784)               402192    \n","=================================================================\n","Total params: 804,112\n","Trainable params: 804,112\n","Non-trainable params: 0\n","_________________________________________________________________\n","None\n","===== Training layer <encoding_layer_256> =====\n","_________________________________________________________________\n","Layer (type)                 Output Shape              Param #   \n","=================================================================\n","sh_ae_input (InputLayer)     (None, 512)               0         \n","_________________________________________________________________\n","encoding_layer (Dense)       (None, 256)               131328    \n","_________________________________________________________________\n","decoding_layer (Dense)       (None, 512)               131584    \n","=================================================================\n","Total params: 262,912\n","Trainable params: 262,912\n","Non-trainable params: 0\n","_________________________________________________________________\n","None\n","===== Training layer <encoding_layer_128> =====\n","_________________________________________________________________\n","Layer (type)                 Output Shape              Param #   \n","=================================================================\n","sh_ae_input (InputLayer)     (None, 256)               0         \n","_________________________________________________________________\n","encoding_layer (Dense)       (None, 128)               32896     \n","_________________________________________________________________\n","decoding_layer (Dense)       (None, 256)               33024     \n","=================================================================\n","Total params: 65,920\n","Trainable params: 65,920\n","Non-trainable params: 0\n","_________________________________________________________________\n","None\n","===== Training layer <encoding_layer_64> =====\n","_________________________________________________________________\n","Layer (type)                 Output Shape              Param #   \n","=================================================================\n","sh_ae_input (InputLayer)     (None, 128)               0         \n","_________________________________________________________________\n","encoding_layer (Dense)       (None, 64)                8256      \n","_________________________________________________________________\n","decoding_layer (Dense)       (None, 128)               8320      \n","=================================================================\n","Total params: 16,576\n","Trainable params: 16,576\n","Non-trainable params: 0\n","_________________________________________________________________\n","None\n","10000/10000 [==============================] - 1s 52us/step\n","10000/10000 [==============================] - 0s 14us/step\n","Model 512 has evaluation score of: [0.19618156490325928, 0.7892956635475159]\n","Model 512 has evaluation score of: [0.17274731681346894, 0.7951623795509338]\n","Training Deep-DAE with shape [1200, 600, 300, 150, 75]\n","_________________________________________________________________\n","Layer (type)                 Output Shape              Param #   \n","=================================================================\n","deep_ae_input (InputLayer)   (None, 784)               0         \n","_________________________________________________________________\n","encoding_layer_1200 (Dense)  (None, 1200)              942000    \n","_________________________________________________________________\n","encoding_layer_600 (Dense)   (None, 600)               720600    \n","_________________________________________________________________\n","encoding_layer_300 (Dense)   (None, 300)               180300    \n","_________________________________________________________________\n","encoding_layer_150 (Dense)   (None, 150)               45150     \n","_________________________________________________________________\n","encoding_layer_75 (Dense)    (None, 75)                11325     \n","_________________________________________________________________\n","decoding_layer_150 (Dense)   (None, 150)               11400     \n","_________________________________________________________________\n","decoding_layer_300 (Dense)   (None, 300)               45300     \n","_________________________________________________________________\n","decoding_layer_600 (Dense)   (None, 600)               180600    \n","_________________________________________________________________\n","decoding_layer_1200 (Dense)  (None, 1200)              721200    \n","_________________________________________________________________\n","output_layer (Dense)         (None, 784)               941584    \n","=================================================================\n","Total params: 3,799,459\n","Trainable params: 3,799,459\n","Non-trainable params: 0\n","_________________________________________________________________\n","None\n","===== Training layer <encoding_layer_1200> =====\n","_________________________________________________________________\n","Layer (type)                 Output Shape              Param #   \n","=================================================================\n","sh_ae_input (InputLayer)     (None, 784)               0         \n","_________________________________________________________________\n","encoding_layer (Dense)       (None, 1200)              942000    \n","_________________________________________________________________\n","decoding_layer (Dense)       (None, 784)               941584    \n","=================================================================\n","Total params: 1,883,584\n","Trainable params: 1,883,584\n","Non-trainable params: 0\n","_________________________________________________________________\n","None\n","===== Training layer <encoding_layer_600> =====\n","_________________________________________________________________\n","Layer (type)                 Output Shape              Param #   \n","=================================================================\n","sh_ae_input (InputLayer)     (None, 1200)              0         \n","_________________________________________________________________\n","encoding_layer (Dense)       (None, 600)               720600    \n","_________________________________________________________________\n","decoding_layer (Dense)       (None, 1200)              721200    \n","=================================================================\n","Total params: 1,441,800\n","Trainable params: 1,441,800\n","Non-trainable params: 0\n","_________________________________________________________________\n","None\n","===== Training layer <encoding_layer_300> =====\n","_________________________________________________________________\n","Layer (type)                 Output Shape              Param #   \n","=================================================================\n","sh_ae_input (InputLayer)     (None, 600)               0         \n","_________________________________________________________________\n","encoding_layer (Dense)       (None, 300)               180300    \n","_________________________________________________________________\n","decoding_layer (Dense)       (None, 600)               180600    \n","=================================================================\n","Total params: 360,900\n","Trainable params: 360,900\n","Non-trainable params: 0\n","_________________________________________________________________\n","None\n","===== Training layer <encoding_layer_150> =====\n","_________________________________________________________________\n","Layer (type)                 Output Shape              Param #   \n","=================================================================\n","sh_ae_input (InputLayer)     (None, 300)               0         \n","_________________________________________________________________\n","encoding_layer (Dense)       (None, 150)               45150     \n","_________________________________________________________________\n","decoding_layer (Dense)       (None, 300)               45300     \n","=================================================================\n","Total params: 90,450\n","Trainable params: 90,450\n","Non-trainable params: 0\n","_________________________________________________________________\n","None\n","===== Training layer <encoding_layer_75> =====\n","_________________________________________________________________\n","Layer (type)                 Output Shape              Param #   \n","=================================================================\n","sh_ae_input (InputLayer)     (None, 150)               0         \n","_________________________________________________________________\n","encoding_layer (Dense)       (None, 75)                11325     \n","_________________________________________________________________\n","decoding_layer (Dense)       (None, 150)               11400     \n","=================================================================\n","Total params: 22,725\n","Trainable params: 22,725\n","Non-trainable params: 0\n","_________________________________________________________________\n","None\n","10000/10000 [==============================] - 1s 65us/step\n","10000/10000 [==============================] - 0s 16us/step\n","Model 512 has evaluation score of: [0.3314657314538956, 0.7731308665275574]\n","Model 512 has evaluation score of: [0.2081358054637909, 0.7789534401893615]\n","Training Deep-DAE with shape [1000, 500, 250, 125, 62]\n","_________________________________________________________________\n","Layer (type)                 Output Shape              Param #   \n","=================================================================\n","deep_ae_input (InputLayer)   (None, 784)               0         \n","_________________________________________________________________\n","encoding_layer_1000 (Dense)  (None, 1000)              785000    \n","_________________________________________________________________\n","encoding_layer_500 (Dense)   (None, 500)               500500    \n","_________________________________________________________________\n","encoding_layer_250 (Dense)   (None, 250)               125250    \n","_________________________________________________________________\n","encoding_layer_125 (Dense)   (None, 125)               31375     \n","_________________________________________________________________\n","encoding_layer_62 (Dense)    (None, 62)                7812      \n","_________________________________________________________________\n","decoding_layer_125 (Dense)   (None, 125)               7875      \n","_________________________________________________________________\n","decoding_layer_250 (Dense)   (None, 250)               31500     \n","_________________________________________________________________\n","decoding_layer_500 (Dense)   (None, 500)               125500    \n","_________________________________________________________________\n","decoding_layer_1000 (Dense)  (None, 1000)              501000    \n","_________________________________________________________________\n","output_layer (Dense)         (None, 784)               784784    \n","=================================================================\n","Total params: 2,900,596\n","Trainable params: 2,900,596\n","Non-trainable params: 0\n","_________________________________________________________________\n","None\n","===== Training layer <encoding_layer_1000> =====\n","_________________________________________________________________\n","Layer (type)                 Output Shape              Param #   \n","=================================================================\n","sh_ae_input (InputLayer)     (None, 784)               0         \n","_________________________________________________________________\n","encoding_layer (Dense)       (None, 1000)              785000    \n","_________________________________________________________________\n","decoding_layer (Dense)       (None, 784)               784784    \n","=================================================================\n","Total params: 1,569,784\n","Trainable params: 1,569,784\n","Non-trainable params: 0\n","_________________________________________________________________\n","None\n","===== Training layer <encoding_layer_500> =====\n","_________________________________________________________________\n","Layer (type)                 Output Shape              Param #   \n","=================================================================\n","sh_ae_input (InputLayer)     (None, 1000)              0         \n","_________________________________________________________________\n","encoding_layer (Dense)       (None, 500)               500500    \n","_________________________________________________________________\n","decoding_layer (Dense)       (None, 1000)              501000    \n","=================================================================\n","Total params: 1,001,500\n","Trainable params: 1,001,500\n","Non-trainable params: 0\n","_________________________________________________________________\n","None\n","===== Training layer <encoding_layer_250> =====\n","_________________________________________________________________\n","Layer (type)                 Output Shape              Param #   \n","=================================================================\n","sh_ae_input (InputLayer)     (None, 500)               0         \n","_________________________________________________________________\n","encoding_layer (Dense)       (None, 250)               125250    \n","_________________________________________________________________\n","decoding_layer (Dense)       (None, 500)               125500    \n","=================================================================\n","Total params: 250,750\n","Trainable params: 250,750\n","Non-trainable params: 0\n","_________________________________________________________________\n","None\n","===== Training layer <encoding_layer_125> =====\n","_________________________________________________________________\n","Layer (type)                 Output Shape              Param #   \n","=================================================================\n","sh_ae_input (InputLayer)     (None, 250)               0         \n","_________________________________________________________________\n","encoding_layer (Dense)       (None, 125)               31375     \n","_________________________________________________________________\n","decoding_layer (Dense)       (None, 250)               31500     \n","=================================================================\n","Total params: 62,875\n","Trainable params: 62,875\n","Non-trainable params: 0\n","_________________________________________________________________\n","None\n","===== Training layer <encoding_layer_62> =====\n","_________________________________________________________________\n","Layer (type)                 Output Shape              Param #   \n","=================================================================\n","sh_ae_input (InputLayer)     (None, 125)               0         \n","_________________________________________________________________\n","encoding_layer (Dense)       (None, 62)                7812      \n","_________________________________________________________________\n","decoding_layer (Dense)       (None, 125)               7875      \n","=================================================================\n","Total params: 15,687\n","Trainable params: 15,687\n","Non-trainable params: 0\n","_________________________________________________________________\n","None\n","10000/10000 [==============================] - 1s 78us/step\n","10000/10000 [==============================] - 0s 15us/step\n","Model 512 has evaluation score of: [0.3021729288816452, 0.7739723322868347]\n","Model 512 has evaluation score of: [0.20524144537448882, 0.7791413274765014]\n","Training Deep-DAE with shape [512, 256, 128, 64, 32]\n","_________________________________________________________________\n","Layer (type)                 Output Shape              Param #   \n","=================================================================\n","deep_ae_input (InputLayer)   (None, 784)               0         \n","_________________________________________________________________\n","encoding_layer_512 (Dense)   (None, 512)               401920    \n","_________________________________________________________________\n","encoding_layer_256 (Dense)   (None, 256)               131328    \n","_________________________________________________________________\n","encoding_layer_128 (Dense)   (None, 128)               32896     \n","_________________________________________________________________\n","encoding_layer_64 (Dense)    (None, 64)                8256      \n","_________________________________________________________________\n","encoding_layer_32 (Dense)    (None, 32)                2080      \n","_________________________________________________________________\n","decoding_layer_64 (Dense)    (None, 64)                2112      \n","_________________________________________________________________\n","decoding_layer_128 (Dense)   (None, 128)               8320      \n","_________________________________________________________________\n","decoding_layer_256 (Dense)   (None, 256)               33024     \n","_________________________________________________________________\n","decoding_layer_512 (Dense)   (None, 512)               131584    \n","_________________________________________________________________\n","output_layer (Dense)         (None, 784)               402192    \n","=================================================================\n","Total params: 1,153,712\n","Trainable params: 1,153,712\n","Non-trainable params: 0\n","_________________________________________________________________\n","None\n","===== Training layer <encoding_layer_512> =====\n","_________________________________________________________________\n","Layer (type)                 Output Shape              Param #   \n","=================================================================\n","sh_ae_input (InputLayer)     (None, 784)               0         \n","_________________________________________________________________\n","encoding_layer (Dense)       (None, 512)               401920    \n","_________________________________________________________________\n","decoding_layer (Dense)       (None, 784)               402192    \n","=================================================================\n","Total params: 804,112\n","Trainable params: 804,112\n","Non-trainable params: 0\n","_________________________________________________________________\n","None\n","===== Training layer <encoding_layer_256> =====\n","_________________________________________________________________\n","Layer (type)                 Output Shape              Param #   \n","=================================================================\n","sh_ae_input (InputLayer)     (None, 512)               0         \n","_________________________________________________________________\n","encoding_layer (Dense)       (None, 256)               131328    \n","_________________________________________________________________\n","decoding_layer (Dense)       (None, 512)               131584    \n","=================================================================\n","Total params: 262,912\n","Trainable params: 262,912\n","Non-trainable params: 0\n","_________________________________________________________________\n","None\n","===== Training layer <encoding_layer_128> =====\n","_________________________________________________________________\n","Layer (type)                 Output Shape              Param #   \n","=================================================================\n","sh_ae_input (InputLayer)     (None, 256)               0         \n","_________________________________________________________________\n","encoding_layer (Dense)       (None, 128)               32896     \n","_________________________________________________________________\n","decoding_layer (Dense)       (None, 256)               33024     \n","=================================================================\n","Total params: 65,920\n","Trainable params: 65,920\n","Non-trainable params: 0\n","_________________________________________________________________\n","None\n","===== Training layer <encoding_layer_64> =====\n","_________________________________________________________________\n","Layer (type)                 Output Shape              Param #   \n","=================================================================\n","sh_ae_input (InputLayer)     (None, 128)               0         \n","_________________________________________________________________\n","encoding_layer (Dense)       (None, 64)                8256      \n","_________________________________________________________________\n","decoding_layer (Dense)       (None, 128)               8320      \n","=================================================================\n","Total params: 16,576\n","Trainable params: 16,576\n","Non-trainable params: 0\n","_________________________________________________________________\n","None\n","===== Training layer <encoding_layer_32> =====\n","_________________________________________________________________\n","Layer (type)                 Output Shape              Param #   \n","=================================================================\n","sh_ae_input (InputLayer)     (None, 64)                0         \n","_________________________________________________________________\n","encoding_layer (Dense)       (None, 32)                2080      \n","_________________________________________________________________\n","decoding_layer (Dense)       (None, 64)                2112      \n","=================================================================\n","Total params: 4,192\n","Trainable params: 4,192\n","Non-trainable params: 0\n","_________________________________________________________________\n","None\n","10000/10000 [==============================] - 1s 88us/step\n","10000/10000 [==============================] - 0s 14us/step\n","Model 512 has evaluation score o
…
noisy, recon, 10, \"shallow_ae_\"+str(i)+\"_noisy\")\n","  dae.autoencoder.summary()\n","  print(\"Reconstructing from original\")\n","#   encoded = dae.encode(x_test[20:30])\n","  recon = dae.reconstruction(x_test[20:30])\n","  show_imgs(x_test[20:30], recon, 10, \"deep_ae_\"+str(i))\n","  \n"],"execution_count":0,"outputs":[{"output_type":"stream","text":["_________________________________________________________________\n","Layer (type)                 Output Shape              Param #   \n","=================================================================\n","deep_ae_input (InputLayer)   (None, 784)               0         \n","_________________________________________________________________\n","encoding_layer_1200 (Dense)  (None, 1200)              942000    \n","_________________________________________________________________\n","encoding_layer_600 (Dense)   (None, 600)               720600    \n","_________________________________________________________________\n","encoding_layer_300 (Dense)   (None, 300)               180300    \n","_________________________________________________________________\n","encoding_layer_150 (Dense)   (None, 150)               45150     \n","_________________________________________________________________\n","decoding_layer_300 (Dense)   (None, 300)               45300     \n","_________________________________________________________________\n","decoding_layer_600 (Dense)   (None, 600)               180600    \n","_________________________________________________________________\n","decoding_layer_1200 (Dense)  (None, 1200)              721200    \n","_________________________________________________________________\n","output_layer (Dense)         (None, 784)               941584    \n","=================================================================\n","Total params: 3,776,734\n","Trainable params: 3,776,734\n","Non-trainable params: 0\n","_________________________________________________________________\n","Reconstructing from original\n"],"name":"stdout"},{"output_type":"display_data","data":{"text/plain":["<Figure size 1600x320 with 0 Axes>"]},"metadata":{"tags":[]}
…
tKnX9tJLL0nesWNH/u4YACAy6FEDAAAAAAAQETyoAQAA\nAAAAiIj9lT6tc84tT8aOYB/VErgtjmNqcAzTA8ex4OMYpgeOY8HHMczBN998k2OOMI5jwccxTA8c\nx4Iv8BhmZWczZToAAAAAAEAUUPoEAAAAAAAQETyoAQAAAAAAiAge1AAAAAAAAEQED2oAAAAAAAAi\nggc1AAAAAAAAEfF/Xq1vRkQM0AMAAAAASUVORK5CYII=\n","text/plain":["<Figure size 1440x288 with 20 Axes>"]},"metadata":{"tags":[]}},{"output_type":"stream","text":["_________________________________________________________________\n","Layer (type)                 Output Shape              Param #   \n","=================================================================\n","deep_ae_input (InputLayer)   (None, 784)               0         \n","_________________________________________________________________\n","encoding_layer_1000 (Dense)  (None, 1000)              785000    \n","_________________________________________________________________\n","encoding_layer_500 (Dense)   (None, 500)               500500    \n","_________________________________________________________________\n","encoding_layer_250 (Dense)   (None, 250)               125250    \n","_________________________________________________________________\n","encoding_layer_125 (Dense)   (None, 125)               31375     \n","_________________________________________________________________\n","decoding_layer_250 (Dense)   (None, 250)               31500     \n","_________________________________________________________________\n","decoding_layer_500 (Dense)   (None, 500)               125500    \n","_________________________________________________________________\n","decoding_layer_1000 (Dense)  (None, 1000)              501000    \n","_________________________________________________________________\n","output_layer (Dense)         (None, 784)               784784    \n","=================================================================\n","Total params: 2,884,909\n","Trainable params: 2,884,909\n","Non-trainable params: 0\n","_________________________________________________________________\n","Reconstructing from original\n"],"name":"stdout"},{"output_type":"display_data","data":{"text/plain":["<Figure size 1600x320 with 0 Axes>"]},"metadata":{"tags":[]}
…
VEjytm3bJOu1awAA6YcZNQAAAAAAABHB\ngxoAAAAAAICIOFTp0w/OufXJOBAcpGYCX4vzmBqcw/TAeSz4OIfpgfNY8HEOc6DLorZv357CIwmN\n81jwcQ7TA+ex4As8h1nZ2dnJPBAAAAAAAAAEoPQJAAAAAAAgInhQAwAAAAAAEBE8qAEAAAAAAIgI\nHtQAAAAAAABEBA9qAAAAAAAAIuL/AZSzCDG9dIbjAAAAAElFTkSuQmCC\n","text/plain":["<Figure size 1440x288 with 20 Axes>"]},"metadata":{"tags":[]}},{"output_type":"stream","text":["_________________________________________________________________\n","Layer (type)                 Output Shape              Param #   \n","=================================================================\n","deep_ae_input (InputLayer)   (None, 784)               0         \n","_________________________________________________________________\n","encoding_layer_512 (Dense)   (None, 512)               401920    \n","_________________________________________________________________\n","encoding_layer_256 (Dense)   (None, 256)               131328    \n","_________________________________________________________________\n","encoding_layer_128 (Dense)   (None, 128)               32896     \n","_________________________________________________________________\n","encoding_layer_64 (Dense)    (None, 64)                8256      \n","_________________________________________________________________\n","decoding_layer_128 (Dense)   (None, 128)               8320      \n","_________________________________________________________________\n","decoding_layer_256 (Dense)   (None, 256)               33024     \n","_________________________________________________________________\n","decoding_layer_512 (Dense)   (None, 512)               131584    \n","_________________________________________________________________\n","output_layer (Dense)         (None, 784)               402192    \n","=================================================================\n","Total params: 1,149,520\n","Trainable params: 1,149,520\n","Non-trainable params: 0\n","_________________________________________________________________\n","Reconstructing from original\n"],"name":"stdout"},{"output_type":"display_data","data":{"text/plain":["<Figure size 1600x320 with 0 Axes>"]},"metadata":{"tags":[]}
…
iyxeunRp+e5Y7uiLeYC+mBfoi3kgqS8yogYAAAAAACAjeFEDAAAAAACQEatKfVocQphT\ncbsD0bi4uLh+WWyI81hpOIf5gfNY9XEO8wPnserjHOYHzmPVxznMD5zHqi/xHKa+qAEAAAAAAEDF\nIfUJAAAAAAAgI3hRAwAAAAAAkBG8qAEAAAAAAMgIXtQAAAAAAABkBC9qAAAAAAAAMuL/AU1KanTz\nYIGwAAAAAElFTkSuQmCC\n","text/plain":["<Figure size 1440x288 with 20 Axes>"]},"metadata":{"tags":[]}},{"output_type":"stream","text":["_________________________________________________________________\n","Layer (type)                 Output Shape              Param #   \n","=================================================================\n","deep_ae_input (InputLayer)   (None, 784)               0         \n","_________________________________________________________________\n","encoding_layer_1200 (Dense)  (None, 1200)              942000    \n","_________________________________________________________________\n","encoding_layer_600 (Dense)   (None, 600)               720600    \n","_________________________________________________________________\n","encoding_layer_300 (Dense)   (None, 300)               180300    \n","_________________________________________________________________\n","encoding_layer_150 (Dense)   (None, 150)               45150     \n","_________________________________________________________________\n","encoding_layer_75 (Dense)    (None, 75)                11325     \n","_________________________________________________________________\n","decoding_layer_150 (Dense)   (None, 150)               11400     \n","_________________________________________________________________\n","decoding_layer_300 (Dense)   (None, 300)               45300     \n","_________________________________________________________________\n","decoding_layer_600 (Dense)   (None, 600)               180600    \n","_________________________________________________________________\n","decoding_layer_1200 (Dense)  (None, 1200)              721200    \n","_________________________________________________________________\n","output_layer (Dense)         (None, 784)               941584    \n","=================================================================\n","Total params: 3,799,459\n","Trainable params: 3,799,459\n","Non-trainable params: 0\n","_________________________________________________________________\n","Reconstructing from original\n"],"name":"stdout"},{"output_type":"display_data","data":{"text/plain":["<Figure size 1600x320 with 0 Axes>"]},"metadata":{"tags":[]}
…
rlw5r01P66zvjQEA\n6Y0eNQAAAAAAABHBgxoAAAAAAICIOFzp0xbn3Npk7AgOcVwCt8VxTA2OYXrgOBZ+HMP0wHEs/DiG\nucjJyZG8devWFO5JaBzHwo9jmB44joVf4DHM0j8OAAAAAAAASB1KnwAAAAAAACKCBzUAAAAAAAAR\nwYMaAAAAAACAiOBBDQAAAAAAQETwoAYAAAAAACAi/h8RgNkWlYpLRQAAAABJRU5ErkJggg==\n","text/plain":["<Figure size 1440x288 with 20 Axes>"]},"metadata":{"tags":[]}},{"output_type":"stream","text":["_________________________________________________________________\n","Layer (type)                 Output Shape              Param #   \n","=================================================================\n","deep_ae_input (InputLayer)   (None, 784)               0         \n","_________________________________________________________________\n","encoding_layer_1000 (Dense)  (None, 1000)              785000    \n","_________________________________________________________________\n","encoding_layer_500 (Dense)   (None, 500)               500500    \n","_________________________________________________________________\n","encoding_layer_250 (Dense)   (None, 250)               125250    \n","_________________________________________________________________\n","encoding_layer_125 (Dense)   (None, 125)               31375     \n","_________________________________________________________________\n","encoding_layer_62 (Dense)    (None, 62)                7812      \n","_________________________________________________________________\n","decoding_layer_125 (Dense)   (None, 125)               7875      \n","_________________________________________________________________\n","decoding_layer_250 (Dense)   (None, 250)               31500     \n","_________________________________________________________________\n","decoding_layer_500 (Dense)   (None, 500)               125500    \n","_________________________________________________________________\n","decoding_layer_1000 (Dense)  (None, 1000)              501000    \n","_________________________________________________________________\n","output_layer (Dense)         (None, 784)               784784    \n","=================================================================\n","Total params: 2,900,596\n","Trainable params: 2,900,596\n","Non-trainable params: 0\n","_________________________________________________________________\n","Reconstructing from original\n"],"name":"stdout"},{"output_type":"display_data","data":{"text/plain":["<Figure size 1600x320 with 0 Axes>"]},"metadata":{"tags":[]}
…
3BFH+P8PtSDLN4dgLKYAxmJKYCymAMpzAwAAAAAARBwP\nagAAAAAAACLicOW5dzjnNh6mD/JHrQTui/NYMDiHqYHzWPhxDlMD57Hw4xweRkRTnSzOY+HHOUwN\nnMfCL/Achq5RAwAAAAAAgOQh9QkAAAAAACAieFADAAAAAAAQETyoAQAAAAAAiAge1AAAAAAAAEQE\nD2oAAAAAAAAi4v8BCJh+JxXiJbEAAAAASUVORK5CYII=\n","text/plain":["<Figure size 1440x288 with 20 Axes>"]},"metadata":{"tags":[]}},{"output_type":"stream","text":["_________________________________________________________________\n","Layer (type)                 Output Shape              Param #   \n","=================================================================\n","deep_ae_input (InputLayer)   (None, 784)               0         \n","_________________________________________________________________\n","encoding_layer_512 (Dense)   (None, 512)               401920    \n","_________________________________________________________________\n","encoding_layer_256 (Dense)   (None, 256)               131328    \n","_________________________________________________________________\n","encoding_layer_128 (Dense)   (None, 128)               32896     \n","_________________________________________________________________\n","encoding_layer_64 (Dense)    (None, 64)                8256      \n","_________________________________________________________________\n","encoding_layer_32 (Dense)    (None, 32)                2080      \n","_________________________________________________________________\n","decoding_layer_64 (Dense)    (None, 64)                2112      \n","_________________________________________________________________\n","decoding_layer_128 (Dense)   (None, 128)               8320      \n","_________________________________________________________________\n","decoding_layer_256 (Dense)   (None, 256)               33024     \n","_________________________________________________________________\n","decoding_layer_512 (Dense)   (None, 512)               131584    \n","_________________________________________________________________\n","output_layer (Dense)         (None, 784)               402192    \n","=================================================================\n","Total params: 1,153,712\n","Trainable params: 1,153,712\n","Non-trainable params: 0\n","_________________________________________________________________\n","Reconstructing from original\n"],"name":"stdout"},{"output_type":"display_data","data":{"text/plain":["<Figure size 1600x320 with 0 Axes>"]},"metadata":{"tags":[]}
…
on, 10, \"shallow_ae_\"+str(i)+\"_noisy\")\n","  dae.autoencoder.summary()\n","  print(\"Reconstructing from original\")\n","#   encoded = dae.encode(x_test[20:30])\n","  recon = dae.reconstruction(x_test[20:30])\n","  show_imgs(x_test[20:30], recon, 10, \"deep_finetuned_ae_\"+str(i))\n","  \n"],"execution_count":0,"outputs":[{"output_type":"stream","text":["_________________________________________________________________\n","Layer (type)                 Output Shape              Param #   \n","=================================================================\n","deep_ae_input (InputLayer)   (None, 784)               0         \n","_________________________________________________________________\n","encoding_layer_1000 (Dense)  (None, 1000)              785000    \n","_________________________________________________________________\n","encoding_layer_500 (Dense)   (None, 500)               500500    \n","_________________________________________________________________\n","encoding_layer_250 (Dense)   (None, 250)               125250    \n","_________________________________________________________________\n","encoding_layer_30 (Dense)    (None, 30)                7530      \n","_________________________________________________________________\n","decoding_layer_250 (Dense)   (None, 250)               7750      \n","_________________________________________________________________\n","decoding_layer_500 (Dense)   (None, 500)               125500    \n","_________________________________________________________________\n","decoding_layer_1000 (Dense)  (None, 1000)              501000    \n","_________________________________________________________________\n","output_layer (Dense)         (None, 784)               784784    \n","=================================================================\n","Total params: 2,837,314\n","Trainable params: 2,837,314\n","Non-trainable params: 0\n","_________________________________________________________________\n","Reconstructing from original\n"],"name":"stdout"},{"output_type":"display_data","data":{"text/plain":["<Figure size 1600x320 with 0 Axes>"]},"metadata":{"tags":[]}
…
